net.pkl (torch_old, 188861 bytes, 10 tensors)

weight f4 [6, 1, 5, 5]
00000000: d6b7 0a3d e7c0 8cbc d55c 553e c1a9 333e
00000010: 5a70 95bd 2f64 873d 912a 3abd 88eb 30bd
00000020: 6bb2 af3e a94b a33e c498 31be 5417 85bd
00000030: 9263 fc3d dd88 873e e975 8b3d e220 943d
00000040: fad7 6abe 92c0 0bbe d416 dfbc 2071 1d3e
00000050: 47cd 8abe fbbd 3abe 4a29 6abe 0c22 353e
00000060: dd81 e03d 9619 4abc 7e44 7dbd 714b 993e
00000070: 6cc5 3f3e 3a17 2ebe c22a d4bd baac 603e
00000080: 0505 9d3d f18b 39bb 48c1 8b3b 960b 9cbd
00000090: a221 573e 6987 51bc 1e66 3c3e a28e edbd
000000a0: c96c 873e dca9 553e fad3 4f3e fe31 563d
000000b0: e9bb b0bd 9fe5 143e 1c01 ae3e dcb2 093e
000000c0: 78a0 aabb b7cf 31be a08c b7bd 1c2b 883d
000000d0: 6b2d 903d c25e 9c3d c227 043c 2b1c fa3c
000000e0: 5c09 3ebe 8ef9 c8bd 8d12 343e 4733 91bd
000000f0: 1d07 4f3e b7d5 143e c90f 8e3c 5e2e cdbd
00000100: 6202 953a 1f9c a4bd 70d1 cabb 332a eebd
00000110: 7679 e6bd 4f8d 0abe fddf 53bc a6db 45bc
00000120: 8209 14be 2779 a8bb 7316 08be f6ff adbd
00000130: 9e64 c63d 7aad 393c 8f84 063e 2e3d 5d3e
00000140: 58ab 2c3e 7214 1f3d 21b9 1dbe 459c 813d
00000150: 73bb 36be 78e3 14be e103 103d 5beb 71bd
00000160: 0005 0ebe 0913 28bd 6596 323d 6d1e 17be
00000170: 896d 25be 2dc3 c2bd affc a13d 1e64 123e
00000180: 1fd5 583c ba33 863c 7b3e fc3d bbc8 7abd
00000190: 5bf9 4d3c 31c5 5fbd 8c75 a7bd a842 49be
000001a0: ea37 293d 4edd d7bd 6bb7 e43d aadc 38be
000001b0: 065d ddbd 1ea0 afbd a0d1 dfbd 3c39 29be
000001c0: 6225 e13d 27e6 343e 8c13 893e 5481 f83a
000001d0: 1c70 863e 41ec c63e 7858 593d 99f6 b73e
000001e0: 9739 b43e 9e09 c13e 64de 983e 5dd6 d03e
000001f0: d198 d83e 4154 9d3e 0c57 a23e cdd9 b93e
00000200: e7dd d03e 5009 b03e c623 fc3d b8a5 fa3d
00000210: ef4d 1d3f bd2e 3d3f 443e b63e 67e5 d33d
00000220: 2464 6c3e 9c60 883e e82d 113f 940e 6c3d
00000230: ea6b 28bd 014e eabd 10d7 a23e 0382 f23e
00000240: b19d 003f c68d 983b 91bb 8abd adc3 d7bb
00000250: 3e23 aa3e 90bd 563e
0.033866726 -0.017181827 0.20836194 0.17545225 -0.0729682 0.066109054 -0.04545075 -0.04319337
0.3431581 0.31893662 -0.17343432 -0.0649859 0.12323679 0.26471606 0.06809599 0.072328344
-0.22933951 -0.13647678 -0.027232565 0.15375185 -0.2710974 -0.18236534 -0.22867313 0.17688769
0.109622695 -0.012335202 -0.061832897 0.2994037 0.18727654 -0.17001048 -0.10359718 0.2194089
0.07666973 -0.0028312171 0.0042649843 -0.07619397 0.21008924 -0.012788632 0.1839833 -0.11599471
0.26450184 0.20865577 0.20295706 0.05229377 -0.08629591 0.14540718 0.3398522 0.13447136
-0.0052071176 -0.17364393 -0.08962369 0.066488475 0.07039913 0.07635261 0.00806612 0.03053101
-0.18558258 -0.09813224 0.17585202 -0.070898585 0.20217557 0.1453465 0.017341511 -0.100186095
0.0011368508 -0.0803759 -0.0061895177 -0.116291426 -0.112536356 -0.13530467 -0.012931821 -0.012076294
-0.14456752 -0.0051413956 -0.13289814 -0.08496086 0.0968716 0.011332864 0.13136505 0.2160537
0.16862237 0.038837858 -0.15402652 0.06328634 -0.17844944 -0.14539897 0.03515995 -0.059062343
-0.13869095 -0.04103378 0.04360046 -0.147577 -0.16155066 -0.09509883 0.07909524 0.14296004
0.013234406 0.016382087 0.12316605 -0.061226588 0.012571658 -0.054631416 -0.08176717 -0.19654334
0.04131309 -0.105402574 0.11167797 -0.18052927 -0.108087584 -0.08575462 -0.10928655 -0.1652574
0.10993458 0.17665921 0.26772726 0.0018959441 0.26257408 0.38852122 0.053062886 0.35930327
0.35200188 0.3770265 0.2985717 0.40788546 0.4230409 0.30728343 0.31707036 0.3629898
0.40794298 0.34382105 0.12311511 0.122386396 0.6144704 0.7389944 0.3559438 0.103464894
0.23085076 0.26636207 0.5671067 0.05763109 -0.04111854 -0.11440659 0.31804705 0.47364816
0.5024062 0.0046555726 -0.06774057 -0.0065846057 0.33230013 0.2097075

bias f4 [6]
00000000: 2838 ee3d 774d 243d 134f 48be 64dd 0dbe
00000010: bca0 683c 0c8f adb9
0.11631805 0.04011294 -0.19561414 -0.13853985 0.014198478 -0.0003310371

weight f4 [16, 6, 4, 4]
00000000: 5d5d 76bb 4cc3 463d 9bc3 6ebd cb5a c93b
00000010: 1e7d 3abd 6367 6fbc e892 debc 1a2f b6bc
00000020: 4d9d 3a3d 4c15 c23d ff61 18bd 6e55 4ebd
00000030: 30af ccbc b363 85bd df08 10bd 7e21 c03d
00000040: 4dc8 c1bd d066 cebc 87e8 4b3d 8383 183d
00000050: 2811 923c cca8 3e3b fdf6 6cbd 61af 493d
00000060: 5109 93bd 86ca abbd 6188 ad3d e708 303d
00000070: 7dd7 403d ac0d c0bb 1021 883b 2443 ac3d
00000080: 1c0e c1bc fffe 433d 029b 393d 8cef 81bd
00000090: 460d ba3d fc92 87bd ba97 c33d fac3 b83b
000000a0: c8b3 7e3d d7e7 80bd 97a6 afbd 0557 99bd
000000b0: 7a03 bf3d 8d5d 1b3d a4bf d03d fa46 8b3d
000000c0: 6ecd 23bd 92f8 c13d d474 983d d2b2 5e3d
000000d0: cf45 96bc 078e c43d e97c a73c 17fa d43c
000000e0: a4cd 90bd 574f 94ba b632 003c 6d80 95bc
000000f0: 882c f7bc 7eec bfbd e0a6 87bd 87b0 8dbc
00000100: b0b7 d83c 62d4 193d 1276 0fbd b1ef c3bd
00000110: 195b 373d 81c4 873d a824 8abd 004c 53bd
00000120: a7d5 c6bd c760 aebd b572 bcbd f420 3cbd
00000130: f51d 9dbd ceab c3bd ddef 853d 29a9 45ba
00000140: 0d97 70bd 0630 48bd 83ae cbbd 1d56 5fbd
00000150: 11eb 7d3d 3721 43bd 7130 c9bc 21a2 b53d
00000160: a991 9bbc e73c 943c c061 d7bb 957e 25bd
00000170: 5c53 af3d 32b0 5c3c c771 80bd 93d8 82bd
00000180: 9191 be3d cb74 f53d 0522 413b c03d 2d3d
00000190: a359 403d d86b 65bd 0a9e 5b3d 11b6 c73d
000001a0: ff30 fbbc b3d0 2e3b 518b 3dbd e0e2 bcbc
000001b0: 1ba2 1ebc a35d b13d 6f85 6cbd f5b7 0f3d
000001c0: 5a40 813c 4a63 d73d 106e 37bd 2069 953d
000001d0: 522e ed3d a466 4fbd fb17 9fbd b257 a3bd
000001e0: 447f 803d c944 853c c533 9cbd 742c 973d
000001f0: 4fab 51bc 7937 143e 4469 0e3e a03e 0f3d
00000200: 226d bfbd e11a b03d 06a8 c43d 5d17 5a3d
00000210: 1855 2f3d 01d8 a3bd e2dd 433d 28a9 67bd
00000220: b47b 833c 223b 2ebd 2850 9ebd c42a 8abd
00000230: 5aa8 443d 9587 bcbd 1a16 11bd e2f8 8f3d
00000240: fe1e c6bd af75 573d c300 273b de5b 3b3c
00000250: 124f bb3c 78d2 da3c 8600 31bd 020d a33d
00000260: ef20 c9bd 25eb 87bc 9f3c f33c dcc8 b5bc
00000270: f427 a23c 958b 813c 5839 a03d c95f 283c
00000280: 14dd b33d cd78 f93c 27b0 dc3d c7f4 253c
00000290: 41bc 10bd 12e1 17be 8863 39be 5166 e03c
000002a0: 5d9d 413c b85e 943b 8695 233e 6170 f03d
000002b0: 461c 113e 290d 483e 3df9 903e 596f 4f3d
000002c0: d6e7 c5bd 6ee9 0f3d d3d4 503e 2c84 023a
000002d0: d50f bc3c 936c 0bbe 9bba b0bd 5729 243d
000002e0: e46e 08be 5c56 3bbe a235 2ebe c67d d7bd
000002f0: 37b6 e13d e9f5 563c b83e ef3c 3db3 883d
00000300: 14a8 a73d 41c5 a83d 50f6 403d 5144 023e
00000310: 6e01 abbd 141f 84bd c349 1e3e e6ed 003e
00000320: 1543 aebd a5f1 c1bc 3540 ce3d 3788 4d3e
00000330: 8a71 5b3d 7145 0bbe 8a56 8f3d 8da4 98bb
00000340: 0398 c9bc c134 ccbd 83b8 333d cf62 1ebd
00000350: 77ad debd ee76 4a3d c13d b1bd 2bd9 17bc
00000360: b52a 78bb 70e5 62bd a65f efbd d8e3 7cbc
00000370: 5c3b 88bb 2f30 173d f0d9 1c3c 635e 0b3e
00000380: 5fbb 14bd ac18 2bbd c699 a33d e5fc 29bc
00000390: d097 943c af6e bc3d 9d85 2e3d 9ae0 be3d
000003a0: b5b5 bdbc 8d36 21bd 8d1b 28bd b378 773c
000003b0: 8f7a a3bd 8862 713b 3fca 983d d3dc b0bd
000003c0: 03ad 92bb 2e9a 2bbd c4eb c63c 63d0 c43d
000003d0: b239 4dbc a886 c2bc 57e8 a9bd 06f1 e8bc
000003e0: 4b7d c7bd bfb5 83bb 8d29 b5bd 5e2a 10bd
000003f0: 1ac5 43bd 8df6 be3d 00e8 32bc 5550 873d
-0.003759227 0.048526093 -0.058292013 0.0061448566 -0.045529477 -0.014612052 -0.02716966 -0.022239257
0.04556017 0.09476718 -0.03720283 -0.05037444 -0.02498588 -0.06513157 -0.03516471 0.09381388
-0.094620325 -0.02519551 0.049782302 0.037234794 0.017830446 0.002909231 -0.057852734 0.04923952
-0.07179511 -0.08388238 0.08473278 0.04297724 0.047080506 -0.005861005 0.004154332 0.084112436
-0.023566298 0.047850605 0.045313843 -0.06344518 0.09084563 -0.06619832 0.09550424 0.0056385966
0.06218317 -0.0629422 -0.08576696 -0.07487301 0.09326835 0.037931014 0.101928025 0.06800647
-0.039990835 0.09471239 0.07444158 0.054369755 -0.018343834 0.09597402 0.020445304 0.025998158
-0.07070473 -0.0011315149 0.00782459 -0.018249715 -0.030172601 -0.09371279 -0.06623626 -0.017296089
0.026454777 0.03755606 -0.03502471 -0.09567202 0.044764612 0.06629277 -0.06745273 -0.05158615
-0.0970872 -0.085145526 -0.09201566 -0.045929864 -0.076717295 -0.095542535 0.06539891 -0.00075401604
-0.058737803 -0.048873924 -0.09945395 -0.054525483 0.061991755 -0.047639098 -0.024559231 0.08868814
-0.018990355 0.018095447 -0.006572932 -0.04040392 0.085608214 0.013469743 -0.06271701 -0.063889645
0.09305108 0.11985167 0.002946974 0.042295218 0.046960484 -0.05601105 0.053617515 0.09751523
-0.030663012 0.0026674687 -0.04627544 -0.023057401 -0.009682204 0.08660438 -0.05774444 0.035087544
0.015777756 0.10516985 -0.0447827 0.07295442 0.115811005 -0.050634995 -0.07768246 -0.07975711
0.06274274 0.01626815 -0.07627062 0.07381526 -0.012797191 0.14474286 0.13907343 0.034971833
-0.09346987 0.08598877 0.096023604 0.053244937 0.04280576 -0.08000184 0.047819026 -0.056557804
0.016050197 -0.042536862 -0.07730132 -0.06746438 0.048012115 -0.09205548 -0.03542147 0.070298925
-0.0967388 0.052602466 0.0025482632 0.011435477 0.022864852 0.026711687 -0.04321339 0.079614654
-0.09820735 -0.016591618 0.029691992 -0.022190504 0.019794442 0.015813628 0.078234375 0.010276743
0.08782402 0.03045311 0.10775786 0.01012916 -0.035335783 -0.14831951 -0.18104374 0.027392538
0.0118173035 0.004527893 0.15975007 0.117401846 0.14170942 0.1953627 0.28315154 0.0506433
-0.0966336 0.035134725 0.20393686 0.00049788016 0.022956768 -0.13615637 -0.08629342 0.040078487
-0.13323551 -0.18294662 -0.17012647 -0.10522036 0.11021083 0.013120153 0.029204711 0.06674812
0.08186355 0.08240748 0.047109902 0.12721373 -0.08349882 -0.0645124 0.15457825 0.12590751
-0.08508889 -0.023674795 0.1007084 0.20071493 0.053575076 -0.13600709 0.06998928 -0.004658288
-0.024608618 -0.099709995 0.043877136 -0.03866845 -0.108729295 0.049429826 -0.08654357 -0.0092680855
-0.0037867252 -0.05539459 -0.11688165 -0.015435182 -0.004157467 0.036911186 0.009573445 0.13610224
-0.036311503 -0.041771576 0.07988314 -0.010375236 0.018138796 0.09200799 0.042607892 0.09320183
-0.023157934 -0.039358664 -0.0410419 0.0151044605 -0.079823606 0.003683241 0.074604504 -0.08635869
-0.004476191 -0.041895084 0.024282344 0.09610059 -0.012525963 -0.02374585 -0.082962684 -0.028435241
-0.097406946 -0.0040194686 -0.08845816 -0.035196654 -0.047795393 0.093243696 -0.010919571 0.06607119

bias f4 [16]
00000000: 1608 47bd 1226 a83d f16c cf3d 3dab 033d
00000010: 50cf 5cbd 7e4b 92bb 65b9 923d da03 0fbd
00000020: 9a96 30bd 68c5 cb3d db30 95bd c0b5 1fbd
00000030: 5c31 503d f722 13be c9f8 a4bd 2894 823d
-0.048591696 0.08210386 0.10128201 0.032145727 -0.053908646 -0.004464566 0.071642675 -0.034915783
-0.043112375 0.09949762 -0.07284709 -0.03899169 0.050828323 -0.14368807 -0.080552645 0.06375915

weight f4 [120, 256]
00000000: 00ad df3b 5fa0 27bd 5ddc ef3c d68d f3bc
00000010: d604 073d 08e6 c7bc 2374 6dbb e328 5a3d
00000020: 42b7 6abd b0d6 2f3d b0e9 91bc 6484 d43c
00000030: 8416 a4bc 6843 f9bc 2a00 133d 45e1 3a3d
00000040: 109d 80bc e5f1 4dbc c0a2 99bc 0556 27bd
00000050: 6a29 e33c 5877 ecbc 336f 273d 48b4 753d
00000060: f883 223d 9e14 673d d315 2d3d 572c 12bc
00000070: 595f a6bc f860 653c 85c7 59bd da73 77bd
00000080: 9906 1cbd 61a1 30bc 0dd7 54bd 70d3 58bd
00000090: 6779 6b3d b2c1 863d 4443 3a3d c230 313d
000000a0: c3b9 23bd f8e3 cdbc 2911 373d fa60 36bc
000000b0: 7bc1 0b3c 29a4 abbb f37f 5c3d d4a9 243d
000000c0: dd92 a43c 14d3 363d ae14 0cbc 1224 0abd
000000d0: ffa3 03bd 4925 00bd fa4f f43b 66ae afbc
000000e0: d2f2 7c3c 39a9 be3c 8645 89bc afdb 31bd
000000f0: 0497 943d 6cda 813c 1181 efbc 15d4 e33c
00000100: 4e7a 07bc 4cc6 c83a bfe1 73bd 78d4 4cbd
00000110: 2f32 2b3c bc72 c03c 47b2 a0bc c8e5 1ebd
00000120: f323 32bb b667 71bc 880b 77bd 35e1 5d3c
00000130: 3d29 023c a5c3 c53c 90ec 263d 88ef 373d
00000140: 9109 113c 30ef 2e3d ae6c 28bd 81c2 b43c
00000150: 69aa 81bc b77f c5bc 5f9d b83c 024c e93c
00000160: 9b2e 16bb d2ef 24bd 03a0 253d bac9 49ba
00000170: be24 a33c 32a0 013d a8a3 c23c 83c3 16bc
00000180: 6cc7 76bd 8ecb d9bc 3178 6b3c 2e93 613d
00000190: a912 04bd dd71 573d cf82 33bd 275e 57bd
000001a0: f9a7 6abc 68e0 b6bb 7106 983c 9c50 dcba
000001b0: 5ba2 8c3d d1f0 0dbd 9674 f1bb 0ec5 d93b
000001c0: 4089 463d 9898 d53c 41a8 003c 0b5d 553d
000001d0: 66eb 40bc 2224 e6bc 84e4 7d3a aead 2fbc
000001e0: 89e2 f6bc 599b a4bc bb5d a4ba 0dab 243d
000001f0: d0c6 283d b564 663d 5f2a 0abc 55d4 12bc
00000200: d191 8dbc dd6d a83a 6ece f9bc 3bb0 803c
00000210: 049e 5c3d 227a 33bc 312c 6d3d 216f 363d
00000220: f867 763c 6001 6f3d 21a8 ddbc 024e 8a3c
00000230: b1b5 3f3d 3747 6b3d 5f55 a2bc d930 b2bc
00000240: 1e20 b4bc 1d2c 3abd a06b 9cbc f239 203c
00000250: 1fe2 86bd 8811 213c b6f0 353d 45da 133b
00000260: a801 a2bc c19a c3bc e137 883d c3e6 dfbc
00000270: a47e b63c 2249 883d a491 3dbc 1dd3 89bc
00000280: 78a6 1dbc fd7a 523d 7946 f93b 21ca 8dbc
00000290: 523b d3bb 518f 4b3d 6f69 7f3d beb2 aebc
000002a0: bd57 7e3d c688 e4bc c45b c7bc 756c 5c3d
000002b0: 6871 a63c 89a5 1e3c 1c9e c6bc af25 543d
000002c0: 7e8f 81bd a0cd 64bd 69f0 a83c 011a 66bd
000002d0: c075 5cbd 0adf 7f3d 87be 35bd 2ede 2fbd
000002e0: a9e6 c03c 44ed 81bc 585b 5abd 6465 f0bc
000002f0: af0d 47bd 3d62 c4bb 39f0 80bd a12a 343c
00000300: 6d12 2c3d d311 80bc 5241 573d b7a3 963c
00000310: fba9 6ebd 865e ca3c ba6d 96bc baa5 063c
00000320: 8b2e 2f3c f8f6 8439 ecf9 3ebd 1877 263c
00000330: 1359 6cbd 43d6 f6ba 7af0 b3bc d765 c53c
00000340: b2bd 363c 0a0d 953c eefe ee3c 0584 fabb
00000350: 76c9 c63b 4f99 aabb f90d dfbc 3246 5dbd
00000360: 0d07 793d 615e 533d dab8 86bd aab2 243d
00000370: 7a28 bcbc f32d 3f3d 6d0f 673d d90c 39bc
00000380: 3ff6 44bd c6a8 b23c 9f13 51bd aa89 50bd
00000390: 63dd 81bd ce07 3a3d d98d 15bd 0fd3 9bbc
000003a0: f36e e33b 3e89 85bd 99a2 bb3c dbe7 cf3a
000003b0: e5ce 54bd d863 ca3c 21cb 033d 6cf7 64bd
000003c0: 0ff4 ed3c c54c 6abd 7a66 8f3c 2789 55bd
000003d0: 5ad3 83bc 6dd9 c3bc 22f4 90bd e6f1 413d
000003e0: 51ae 523d 559e 893d 549d 523d 3256 88bd
000003f0: 6868 d1ba 029f 303d e391 52bd ac35 adbc
0.006826043 -0.040924426 0.029279882 -0.029730719 0.032963596 -0.02440168 -0.0036232553 0.05326165
-0.057303675 0.04292935 -0.017811626 0.025942035 -0.020030268 -0.03042765 0.03588883 0.04562499
-0.015699893 -0.012569879 -0.018754363 -0.04085352 0.027729709 -0.028865501 0.040877532 0.059986383
0.039676636 0.056416146 0.04225714 -0.008921704 -0.020309137 0.01400017 -0.053168792 -0.06041322
-0.03809223 -0.010780663 -0.0519629 -0.052936018 0.057488825 0.06579913 0.045474306 0.04325939
-0.039972078 -0.025133118 0.0446941 -0.011131519 0.008530016 -0.0052380753 0.05383296 0.040201023
0.020089561 0.044634894 -0.008549852 -0.033725806 -0.03213882 -0.031285558 0.007455823 -0.021445464
0.015438752 0.023274051 -0.016756784 -0.043422397 0.072553664 0.015851222 -0.029236348 0.02781109
-0.008268906 0.0015317886 -0.05954146 -0.050007313 0.010448976 0.02349221 -0.01961626 -0.038793355
-0.0027182072 -0.014734199 -0.06031373 0.013542463 0.007944402 0.024141142 0.040752947 0.04490617
0.008852378 0.042708576 -0.04111927 0.022065403 -0.015828328 -0.02410875 0.022535978 0.028478626
-0.0022915963 -0.040267773 0.040435802 -0.0007697601 0.019914981 0.031646915 0.023759678 -0.009201887
-0.060248777 -0.02658632 0.014371918 0.055072002 -0.03224436 0.052598823 -0.04382592 -0.052580025
-0.014322274 -0.0055809505 0.018557759 -0.0016808691 0.06866904 -0.03465349 -0.0073686345 0.006645805
0.048470736 0.026073739 0.007852615 0.052090686 -0.011774873 -0.028093401 0.00096852356 -0.010722561
-0.030137317 -0.020093607 -0.0012540141 0.04020219 0.041205227 0.056248385 -0.008432954 -0.008961757
-0.017281445 0.0012850125 -0.030493941 0.015709033 0.053861633 -0.010954412 0.057903472 0.044539575
0.0150394365 0.05835092 -0.02705771 0.0168829 0.046804134 0.057440963 -0.019816099 -0.021751808
-0.02198797 -0.045452226 -0.019094288 0.00977944 -0.06586098 0.00983084 0.044419013 0.0022560519
-0.01977618 -0.023877503 0.06651283 -0.027331715 0.022277184 0.06654574 -0.011570368 -0.0168243
-0.009622209 0.051386822 0.007607278 -0.017308297 -0.0064462805 0.049697224 0.06235641 -0.021325465
0.062095392 -0.02789725 -0.02433575 0.05381437 0.020317748 0.009683021 -0.024245314 0.05179375
-0.06326197 -0.05586016 0.020622449 -0.056177143 -0.053823233 0.062468566 -0.044371154 -0.042936496
0.023547487 -0.015860207 -0.05330977 -0.029345222 -0.048597034 -0.005993156 -0.06295819 0.010996492
0.04200976 -0.0156335 0.05255253 0.018388612 -0.058267575 0.024703275 -0.018362869 0.008218223
0.010692249 0.00025361008 -0.046625063 0.01016023 -0.057702135 -0.0018832166 -0.021965254 0.024096413
0.011153625 0.018194694 0.029174294 -0.0076451325 0.0060664965 -0.005206264 -0.027228342 -0.05402202
0.06079774 0.05160368 -0.065782264 0.04020945 -0.02296852 0.04667468 0.056411196 -0.011294567
-0.0480864 0.021808993 -0.051044103 -0.050912537 -0.06341054 0.0454176 -0.03651223 -0.019021539
0.0069407164 -0.065203175 0.022904681 0.0015861945 -0.051955123 0.024705812 0.03217614 -0.055900022
0.02904704 -0.05720212 0.01750492 -0.05213275 -0.016091991 -0.023907388 -0.07077815 0.047349833
0.051435772 0.067196526 0.05141957 -0.066570655 -0.001597655 0.04312039 -0.05140866 -0.021143757

bias f4 [120]
00000000: 3c97 4dbd 5ba8 2bbd ee6f 40bc 3d42 633d
00000010: 3763 67bd ced9 2cbd f9e8 d0bb 3c12 3a3c
00000020: d99e 7bbd a451 823d 4445 343d 6752 0c3d
00000030: bf8a 513d 19d5 6bbd 886f 69bd 3cdd da3c
00000040: 2e88 0b3d e01e ed3c a430 133d 74d0 0fbd
00000050: 31c3 5fbd d61c 413d 0df4 04bd 8af9 7fbd
00000060: 03e3 83bd 0346 eb3c f282 5f3c dc73 cebc
00000070: 6e34 f23c 6f42 90bd 3bc7 563b 7254 383d
00000080: 677f 233d 4fef aa3d 0869 213d 3ce1 0a3d
00000090: 7fb0 4bbd 461a 08bd 707b 60bd 488d 2ebc
000000a0: 47f2 cc3c d7d7 553d 0995 10bd 5f2b b83c
000000b0: 33ff 9fbc de77 61bb 9d1a d53b dff0 883c
000000c0: f670 c3bc 4b81 8f3d 373e 9b3c c9fc 92bc
000000d0: 6fc7 e9bc 424b e2bc 1043 fc3c 1abc ac3b
000000e0: 086f f3bc 8df4 9f3d 593a 443d 73ec 093d
000000f0: c600 05bd 91ef 2ebc 6516 c53c c294 23bd
00000100: 7453 c8bc 2c79 47bd fbe0 aabb f2b5 563d
00000110: fe80 d5bc 3cd1 03bd d5e8 d83b 7326 6a3d
00000120: 39db 31bc cdf5 8f3d 309f 5e3c 0d20 383d
00000130: 471f 6ebc 5da4 383d 11e5 8bbc 9fb0 48bd
00000140: 9cd5 2e3d 1082 333d b1ab 4abd 736f 0d3d
00000150: bc23 8cbc a11c d8bc 4c04 083d 00fc 203d
00000160: 754a 763d 8139 3f3c 3a7d 363d e979 41bd
00000170: 446d 5fbd f127 f43c 21a6 c03c 3f4b 793d
00000180: d359 243c 10d4 a33d f80f 863c 647a 3fbd
00000190: 0e66 1d3d 3149 07bd 035c 813c 86fb 06bc
000001a0: 6551 d33c e77b debc 0743 62bd 36c1 e3bc
000001b0: b9ea cc3c a706 413d b8b5 673d 46d9 a7bc
000001c0: a283 2e3d fb9a 203c 842d 9bbc 2478 153d
000001d0: dca0 3dbc bf35 01bd cb57 babc c1b2 5c3d
-0.050193056 -0.041908603 -0.011745436 0.05548309 -0.056491103 -0.042199902 -0.0063754288 0.0113568865
-0.061430786 0.06363228 0.04401137 0.034258272 0.05115771 -0.057576273 -0.05699113 0.02671682
0.034065418 0.028945386 0.03593506 -0.035110906 -0.05462951 0.04714664 -0.032459307 -0.06249384
-0.064397834 0.028719908 0.01364206 -0.02520173 0.029566016 -0.07043921 0.003277256 0.04500241
0.039916422 0.08346426 0.039406806 0.033906206 -0.049728867 -0.03322818 -0.05480522 -0.010653801
0.02501787 0.052207794 -0.03529838 0.022481618 -0.019530868 -0.0034403722 0.0065034167 0.016716419
-0.023857575 0.070070826 0.018950565 -0.017942803 -0.02853748 -0.027623776 0.030793697 0.005271447
-0.02971603 0.07810316 0.047907207 0.03367276 -0.03247144 -0.010677234 0.02405853 -0.03993679
-0.024453856 -0.048699543 -0.005214808 0.05241961 -0.026062485 -0.032181963 0.0066195526 0.057165574
-0.010855489 0.07029305 0.013587758 0.04495244 -0.014533824 0.045078624 -0.017077 -0.048996564
0.042684183 0.04382521 -0.049480144 0.034530114 -0.017106883 -0.026380839 0.033207223 0.039302826
0.0601296 0.011671425 0.04455302 -0.047235403 -0.054547563 0.029804202 0.023516716 0.060862776
0.010031181 0.07999432 0.016365036 -0.04674758 0.038427405 -0.033028785 0.015790945 -0.008238679
0.025795648 -0.02715869 -0.055239704 -0.027802091 0.025014268 0.047125485 0.056569785 -0.020489346
0.042606004 0.009802575 -0.018942602 0.03649153 -0.011573996 -0.031545397 -0.022746941 0.05388141

weight f4 [84, 120]
00000000: 5b6d a7bd 8388 da3b 5992 273c 2458 07bd
00000010: 50e6 b93d 00ba 71bb 38f4 2dbd 5d39 e9bc
00000020: 42f6 0b3d 75ce b13d 543a 9d3d 30f0 c3bd
00000030: 3850 dd3c bbdb a3bd e037 4ebc 3fca 1a3d
00000040: fd33 9bbc 7272 27bd 7788 f0bc 7e3e c83d
00000050: 9155 c8bc 3381 87bd 1ca3 233d 0767 783b
00000060: 7a7d b63d e696 833d 31c4 49bd 5626 e83c
00000070: 6f80 8b3d 0ea3 263d 723f b93d fc24 8fbc
00000080: f088 c83d e9e1 f9bd c573 063c a0c0 c13d
00000090: 0f6c 803d f03b c03d ef22 883c 27f7 0fbd
000000a0: 4d74 c2bd b80b c3bd 221d 093c f8d0 b03d
000000b0: 0009 a83d 6c38 95bd b31b 783d c41e 973d
000000c0: 1214 b63d 5cbc 8b3d adeb 64bd ec1e 47bd
000000d0: b7e9 de39 9cb0 a0bd 8774 dc3d 4f03 073d
000000e0: daf6 193d b4a2 01bc 63b5 febd 3795 b63d
000000f0: 97fe cabc b251 9d3c 579e 9e3d f7a2 6fbb
00000100: 8c47 2cbd 8416 42bd 7859 4f3d 4765 003c
00000110: 7de7 a33c 8dad adbd 28b7 e7bd 343f d0bb
00000120: 4b75 41bd 191d cbbb f44b ae3c c28f 523d
00000130: 79cf 9abd e2ca d73c 66e8 c43d 4bcc 5bbc
00000140: 1387 d8bc 2de8 de3d f439 393d 71e0 b13d
00000150: 9208 613c 4857 80bd 5a5f 303c 510e a4bc
00000160: 586d 8cbd d7a1 253d 0c57 34bd 7a4d b8bd
00000170: 2be3 b73d d4aa 9ebd 4d1e b2bd 4790 a83c
00000180: e236 14bd 3d38 fdbd 7dcd 373c 30e8 863d
00000190: 0181 3b3d 1479 293d 6636 91bc 35f0 9abc
000001a0: c4dc bb3d 89f7 fe3c c8db cfbd 0850 e4bd
000001b0: af86 9cbd 1074 833d db02 a8bd 626d 7dbd
000001c0: 31d8 31bd ff0a 4f3d 5b06 e7bc 5048 403d
000001d0: f51a 5cbd 6f83 bc3d 5e7b 41bc 7130 a3bc
000001e0: c748 1abd 1730 8b3d f6d7 e43d 4c87 983d
000001f0: 8654 3cbc da52 88bd 8364 cfbd 0d23 afbd
00000200: 32b5 dd3d 4b8b af3d 80fd e23c cce0 3a3d
00000210: 332a ebbc 1e1b c13c 8040 ac3d 728e b93c
00000220: 1646 9f3c 92de 943c 2902 43bd 71e3 44bb
00000230: 5e02 09be 20bb e3bb bf9e c33d 78aa 5f3d
00000240: 0751 c0bc c61d 15bd 578f 06bc b0f3 f13d
00000250: aeb5 c1bc 5d38 eb3c 25df 95bd 4fee 97bd
00000260: 2c10 a1bb 3793 df3c 53b7 143d 6e39 e53b
00000270: 73cf b63d ac29 aa3d f751 b23d 17d8 4e3d
00000280: 58a1 dc3d bb3a a8bd 9e9f 1cbe 8177 4c3b
00000290: 4c0c e03d a287 89bd c73a 653c dd08 3abe
000002a0: b599 b7bd 46e7 0ebe e5d2 943d 9d19 51be
000002b0: c7e5 34bc 1aba b13c d618 93bd bf71 eabc
000002c0: ac1c 7b3d d7d3 0abd 9a93 b4bd c65b 823d
000002d0: d262 17bd 4bd3 78bc 10f1 893c 8409 783d
000002e0: 92e2 c6bd 7dbb 833c 2884 5a3d 48e9 853b
000002f0: 743a 79bd ec30 aa3d d07f 46bd 6a7f 27be
00000300: 8f83 b3bd 0473 593c 3f7c 98bd 4f0a 00bd
00000310: 826d b63b 8d88 f43c 5200 b23d 181c 8dbd
00000320: 81bc 2ebd 1237 11be 06ae 2f3d 14c1 e63d
00000330: 3fd4 a1bc 4300 193d cba9 9f3d 9fbe 023d
00000340: 9df8 b13d 9aa9 7b3d 26b4 a0bd 6e4b 963d
00000350: 8a69 65bb fec3 05bd 7ab0 7e3c 93e5 323d
00000360: 715b b13d fde9 af3c 660c f0bd 1a3e a2bc
00000370: c473 8c3d 069c cebc 78e1 c83d 3760 e53b
00000380: eec3 c73d bc9f 833d f4ed ac3c e344 963d
00000390: c610 c8bc 94cb 0f3d 0575 37bd 60ef 9b3d
000003a0: e859 8fbd aa31 6d3d 1259 903d 0662 653b
000003b0: a3b9 e53d 6a86 afbc 4e2a 1e3c 8af2 a8bd
000003c0: 1ed0 053d 80c3 9a3d 38ac 023a f380 583d
000003d0: 58b9 aa3d 09b8 81bd 35b7 a1bd f7ae 993d
000003e0: eaff 14bd e7e0 123d 74ae 93bd deae 4e3d
000003f0: d40c 893d c217 95bc ce91 1bbc 274c 9fbc
-0.08175155 0.0066691055 0.010227763 -0.03304304 0.09077132 -0.0036884546 -0.042469233 -0.028469736
0.034170397 0.08681957 0.07677141 -0.095672965 0.02701579 -0.08000895 -0.012586564 0.037790533
-0.018945688 -0.040880628 -0.029361947 0.097775444 -0.024454864 -0.0661644 0.039950475 0.0037903206
0.089106515 0.06425266 -0.04925937 0.028338592 0.06811606 0.040682845 0.09045304 -0.01747369
0.09791744 -0.12201292 0.008206313 0.094605684 0.062706105 0.09386432 0.01661822 -0.035147812
-0.09494839 -0.095237195 0.008368762 0.086336076 0.082048416 -0.07286152 0.06057329 0.07378915
0.08890547 0.06823036 -0.05588882 -0.048613474 0.0004251727 -0.078461856 0.10764413 0.03296214
0.03758893 -0.007912327 -0.124369405 0.08915179 -0.024779601 0.019203994 0.07745045 -0.003656564
-0.04206042 -0.047384754 0.050622433 0.007836646 0.020007843 -0.08480368 -0.11314231 -0.0063551906
-0.047231 -0.006198537 0.021276452 0.05140663 -0.075591035 0.02634186 0.09614639 -0.013415406
-0.026431596 0.10884128 0.045221284 0.08685387 0.0137349535 -0.062666476 0.010764921 -0.020026358
-0.06856793 0.040437546 -0.044028327 -0.089991525 0.08978876 -0.07747427 -0.08697186 0.02057661
-0.036185153 -0.12364242 0.011218426 0.06587255 0.045777325 0.041375235 -0.017726135 -0.018913368
0.09172967 0.031123893 -0.10149342 -0.11148077 -0.07642876 0.064186215 -0.0820367 -0.061871894
-0.043419067 0.050547596 -0.028201273 0.046943963 -0.053736646 0.092047565 -0.011809198 -0.01992056
-0.037667062 0.06796282 0.11174004 0.07447681 -0.011494761 -0.06656428 -0.10126593 -0.08551607
0.10825576 0.0857149 0.027708769 0.04562454 -0.028706646 0.0235725 0.0841074 0.022650931
0.0194426 0.018172536 -0.047609482 -0.0030042792 -0.1337981 -0.0069497973 0.09551763 0.05460593
-0.023476137 -0.036405347 -0.008212886 0.11814058 -0.023646202 0.0287134 -0.07317952 -0.07418501
-0.004915258 0.027291877 0.036307644 0.0069953715 0.089262865 0.083087295 0.0870704 0.050499048
0.107729614 -0.08214327 -0.15295264 0.003119916 0.109398454 -0.06715323 0.013991064 -0.18167444
-0.08964864 -0.13955411 0.072667874 -0.20419927 -0.011041111 0.021695185 -0.071824715 -0.028618691
0.06130664 -0.033893432 -0.08817215 0.06365161 -0.036959477 -0.015187095 0.01683858 0.06055595
-0.097111836 0.016080612 0.05334869 0.004086647 -0.06084676 0.08310112 -0.048461735 -0.16357198
-0.08765327 0.013272051 -0.07445573 -0.03125983 0.0055672536 0.029850269 0.08691467 -0.06890124
-0.04266024 -0.14181164 0.04289057 0.112672955 -0.019754527 0.037353765 0.07796057 0.03192007
0.08689997 0.06144104 -0.078468606 0.07338606 -0.0035005533 -0.032657616 0.015545005 0.04367597
0.08660019 0.021473879 -0.11721115 -0.019805003 0.06858018 -0.025220882 0.0980863 0.006999995
0.097541675 0.06426951 0.021109559 0.07337358 -0.02442206 0.035106257 -0.044789333 0.076140165
-0.0699957 0.05790869 0.07048239 0.0035001053 0.11217048 -0.021426398 0.009653641 -0.08249386
0.03266918 0.0755682 0.0004984769 0.05285735 0.08336133 -0.0633393 -0.07896272 0.07504075
-0.03637687 0.035859015 -0.07211009 0.050459735 0.066919 -0.018199805 -0.009495212 -0.019445492

bias f4 [84]
00000000: 3bc5 12bc 72dd 463d 9c03 cbbc 4bec cb3d
00000010: b4fe 1c3e 5b0d 51bd 0c1d 9dbd f15f 453d
00000020: 4d1c 36bd 80c3 9fbd 5d94 a1bc 13f7 39bd
00000030: 7e0b 813d 7c72 f8bc 9ba7 943d e0d1 54bd
00000040: e01a 11bd c201 993d 1425 2b3d 9c8d 033e
00000050: 4a90 6cbd 5fac 1dbd 90a3 203c 0a6c 383d
00000060: 2085 6abc b495 7bbd 7427 fabc d41d babc
00000070: a79d 1bbc 1d8b 92bc 5281 ad3c 8e36 25bc
00000080: 2eef e03b 87e4 ce3d 3fce 7cbc 6788 023c
00000090: b2a5 4bbd 8b15 653d d5a1 67bd dcc5 883d
000000a0: 891d 953c 7543 33bd 7c20 f23d b688 9a3d
000000b0: 8c0c 953d c0ad 873c 101a b53d 174c 6cbd
000000c0: eb54 a6bd 8942 b23c bd3e 123e 8423 9dbd
000000d0: 4397 34bd 9113 73bd b2c7 72bc cbde ae3b
000000e0: 02ef 81bd 3e02 61bb cc14 3b3d 40b6 ad3d
000000f0: 7520 5a3d 7798 a5bc 319e 403d 4395 96bd
00000100: 2906 833d 2614 823d 8805 3c3d 4dfc 833d
00000110: a93c 40bd e774 9cbd ea12 bd3a 1758 78bd
00000120: c019 3bbd ba8f 7ebd cf94 18bd 882c 9abd
00000130: 8dae 85bd b8e3 613d 323f 3fbd 802c 86bd
00000140: e33b aebd e958 00bb 8abb 8dbd 09a2 f13d
-0.008958156 0.04855103 -0.024781995 0.09957179 0.15331537 -0.051038127 -0.07671556 0.0481872
-0.044460583 -0.078009605 -0.019724065 -0.045401644 0.0630102 -0.030328028 0.07258531 -0.051957965
-0.03542602 0.074710384 0.041783407 0.12846988 -0.057754792 -0.038494464 0.009804621 0.04502491
-0.014313966 -0.061422065 -0.03053639 -0.022719301 -0.0094980365 -0.0178886 0.021179829 -0.010083808
0.00686445 0.10102182 -0.015430032 0.007967091 -0.049718566 0.055928748 -0.05655082 0.06678364
0.01820256 -0.043765504 0.11822602 0.07545607 0.07277784 0.016562343 0.08842862 -0.057689752
-0.081216656 0.021760242 0.14281745 -0.0767279 -0.044089567 -0.05934483 -0.014818119 0.0053366176
-0.06344415 -0.0034333612 0.04567413 0.08482027 0.05325361 -0.020214302 0.047025863 -0.07352688
0.06397659 0.06351499 0.045903713 0.06444607 -0.04693285 -0.07639485 0.0014425192 -0.060630884
-0.045678854 -0.062148787 -0.03725129 -0.07528025 -0.065274335 0.05514881 -0.046691127 -0.065514565
-0.08507516 -0.0019584245 -0.06920536 0.11798484

weight f4 [3, 84]
00000000: dc80 873e 2731 823d b4fa 6abd e90e 983e
00000010: 1d2d b4be 5279 a23b 3060 a0bb 2234 22be
00000020: 66af a13d 1e12 1f3e 2a38 483d bb79 9ebc
00000030: 98f0 643d 56eb fcbb 9253 57bd 0594 c2bc
00000040: b63c c5bd 6a23 7dbd 99e6 e83d 668d 92be
00000050: 4f15 b03d 57e8 09bd 5026 12bd c259 1e3e
00000060: 912f 033c 5d89 d5bd 511e 38be cef6 883d
00000070: e8d2 02be cb70 5d3c 70f2 193e bfdb 493e
00000080: 04b2 413c e846 8cbe 876b 7c3d f886 a7bc
00000090: 6eb9 703e 8e66 a03e 159c 01be fa3a 833e
000000a0: b907 2f3c 744b b63d d28b a0be d2b1 f6bc
000000b0: 5d40 2f3e 2474 de3c d288 4cbe 825b 923c
000000c0: 8744 1e3d 2502 5a3e ff11 a4bd 1292 96bd
000000d0: 4c2c c7bd 1843 a6bd b016 2cbe 35bd 513d
000000e0: 4d24 d0bd 5640 ddbd 510e 883b 68c9 51be
000000f0: 2f1f d93d df8f d13d b0e5 74be c0e4 41bd
00000100: 4d2b 9e3c 92f0 cbbd 7564 193e 624b 333e
00000110: 1be2 de3c b2d6 c8bd fd8e bbbb 74f7 783c
00000120: 389e 9c3c ce11 9c3d d5d4 14be c8f1 96bc
00000130: 75d5 8ebd 0ffb a23c bb33 70bd 240f f23c
00000140: 32c4 973d e09e dd3d 4b0b 2fbe 2d71 0ebe
00000150: 47aa ddbd 9b7b c3be 0edd 5bbd d784 b2be
00000160: 0ddb ae3e 5f9e 56bd ad3d c8bd 9595 4f3d
00000170: fd01 35bc 43fc cabd ba15 81bd 501c 1fbd
00000180: 0bc0 8dbe 8546 403a 94ce 2d3e 0445 81bd
00000190: 3332 bb3d 0bbb a9bc bf2f 053e 69e2 893e
000001a0: 0744 0f3e cdca e53c efbe e33c 6f81 083e
000001b0: aaaa 603d eb0e 0bbc 3e15 92bd f3ad 5b3e
000001c0: b7f7 4c3d 95f7 51bd 8bd2 0dbe 4afe ddbd
000001d0: de26 303e e0d1 563e 2ee3 07bd 093c 743e
000001e0: 87e7 adbe bdbe b8be 24ec 2e3d 27ab 93bd
000001f0: b314 7cbc 0ba8 483d 7f1e 4f3c 052a 39be
00000200: f3fa e53d 00eb 59bb 40be 00be a33d db3d
00000210: 1d55 713c 68c5 d33d 57df 883e ce4f 993d
00000220: c5f6 87bd efb7 79bd 230e 703d 4073 9abd
00000230: 911a 3bbe a22e a3bd c061 973e d0de da3e
00000240: 8658 9e3e 6d8c e0bb f877 363c e492 75bd
00000250: b567 b43d 2838 8d3e 4d0c 55bd cfae cc3d
00000260: a0ac 163e 2ac6 8ebd f632 00be e27d 9ebd
00000270: c68b 11be 504c c83b e13f 02be c9bd 9abd
00000280: 481a ac3c 034d 253e 8694 133d 6756 a1bd
00000290: 67d6 5cbd 37ed 3d3d 25e7 243d 6aea a43d
000002a0: d127 2cbe d921 a43e 4a15 09be 9f59 4e3e
000002b0: e25a 003e c3d4 303e 920d 453d 9d40 f23d
000002c0: bd4d dabd 5872 d9bd be06 c3bd 48fc fa3c
000002d0: 5457 af3e 8f3d 173d 1099 64be 431c cf3d
000002e0: 2beb a03d cfaf b9bd f56c 15be 0e14 d83d
000002f0: b7d6 a8bc 1a82 0a3b ebdd ca3d 08c6 3ebe
00000300: b7e5 b13d f5db fe3d 1e33 dd3d f654 43be
00000310: 68d1 293d 0913 06bc 3b00 72be 77f0 e43a
00000320: a79a 2e3d d6ff f73d 4dc2 643d eff4 41be
00000330: 41e2 0c3d a24c 473c 5170 e03d 0017 a0be
00000340: b077 9f3d fef9 423d 8899 b63e 6880 583e
00000350: 5925 10be 75fa 883d 5d22 3d3e b421 163d
00000360: a62f 24be c1df 9abe 8fdb 68be f4c1 94bc
00000370: bd3d ac3d 89bd e5bd fe1c 923e 0f28 b5bd
00000380: c41d 7c3e adcb 223e 6e76 a3be 3952 dfbd
00000390: b066 d6be d6bc 8ebe d71f 843d aadf d33a
000003a0: 6402 e3bd 7405 29be 3cd8 d7bd aaca e4bd
000003b0: bf58 2dbc f66d a7bc b1d2 763e b1db ccbd
000003c0: 6e62 373e 662e 15bc 86a6 0d3e 96ac cd3d
000003d0: 2017 c23b 67df 86bd 0038 203b 25f7 4c3d
000003e0: 2f81 a1bd b3b7 a5bd 6837 dabc eeb3 3d3e
0.264655 0.06357031 -0.057367995 0.29698876 -0.3519067 0.00495831 -0.004894279 -0.158402
0.07894783 0.15534255 0.048881687 -0.019345155 0.05589351 -0.007718484 -0.052569933 -0.023752222
-0.0963072 -0.06180135 0.11372108 -0.28623503 0.08597814 -0.033668842 -0.03568107 0.15463927
0.008006946 -0.104265906 -0.17980315 0.06687699 -0.12775767 0.0135156615 0.15033889 0.19712733
0.011822227 -0.27397847 0.061625984 -0.0204501 0.23508236 0.31328243 -0.12657197 0.25630933
0.010682994 0.0890111 -0.31356674 -0.030114088 0.17114396 0.02715499 -0.19974068 0.0178659
0.03863957 0.2128988 -0.08011245 -0.073520795 -0.09725246 -0.08118266 -0.1680553 0.051205833
-0.10163174 -0.10803287 0.0041520973 -0.20486987 0.10601651 0.10232519 -0.23915744 -0.047337294
0.019307757 -0.099579945 0.14979728 0.17509225 0.027207425 -0.09806575 -0.0057238326 0.015195716
0.019118413 0.076205835 -0.14534314 -0.018425837 -0.069743074 0.019895105 -0.058643084 0.029548235
0.07410468 0.108213186 -0.17094152 -0.1391036 -0.108234935 -0.3818024 -0.05367761 -0.34866974
0.34151497 -0.05239713 -0.09777389 0.050679762 -0.011047837 -0.09911396 -0.06302972 -0.03884536
-0.2768558 0.0007334727 0.16973335 -0.06311992 0.09140434 -0.020719072 0.13006495 0.2693055
0.13990794 0.028050805 0.027801005 0.13330625 0.054850258 -0.008487443 -0.07132958 0.21453075
0.050040927 -0.051261503 -0.13849847 -0.108395174 0.17202327 0.20978498 -0.03317564 0.23851027
-0.33965704 -0.36083022 0.04270567 -0.07210379 -0.015385794 0.048988383 0.012641548 -0.18082435
0.112295054 -0.0033251643 -0.12572575 0.10705116 0.014729765 0.10340387 0.26732895 0.07485925
-0.066388644 -0.06096643 0.05860723 -0.075415134 -0.18271853 -0.07967879 0.29566765 0.42748117
0.30926913 -0.0068526776 0.011137001 -0.05995454 0.08808843 0.27581906 -0.052013684 0.099942796
0.14714289 -0.069713905 -0.1251944 -0.07738854 -0.14213476 0.006112613 -0.1271968 -0.0755573
0.021008626 0.16142659 0.036030315 -0.07877808 -0.053915408 0.046368804 0.0402595 0.080525234
-0.16812064 0.32057074 -0.13387027 0.20151375 0.12534669 0.17268662 0.048108645 0.1182873
-0.10659359 -0.106175125 -0.0952277 0.030637875 0.34246314 0.03692394 -0.22324014 0.10112812
0.07857355 -0.09066736 -0.14592345 0.105507 -0.020610197 0.0021134675 0.09905609 -0.1863023
0.08686393 0.12444297 0.108007655 -0.19075379 0.04145947 -0.008183249 -0.236329 0.0017466684
0.042627957 0.12109344 0.055849362 -0.18941091 0.03439546 0.012164267 0.10958923 -0.31267548
0.077865005 0.047601692 0.3566401 0.21142733 -0.14076747 0.06688396 0.1847014 0.036653236
-0.16033801 -0.30248836 -0.22740005 -0.01815889 0.08410213 -0.112177916 0.28537744 -0.08845531
0.2462073 0.15898009 -0.31926292 -0.109043546 -0.4187522 -0.27878445 0.064513855 0.001616468
-0.1108444 -0.16505986 -0.1053929 -0.111714676 -0.010580241 -0.020438176 0.2410381 -0.1000284
0.17908642 -0.0091053005 0.13833055 0.10042684 0.005923167 -0.06585579 0.002444744 0.050040383
-0.07885968 -0.080916785 -0.026637748 0.18525669

bias f4 [3]
00000000: f51f e8bd f430 f53d 78f9 51bd
-0.1133422 0.11972228 -0.051263303
